data.pth (torch_old, 41912 bytes, 6 tensors)

l1.weight f4 [8, 416]
000000 90 a2 30 3f b7 59 aa bf 11 d4 0b be 4a ac 26 bf
       0.6899805 -1.3308629 -0.13655116 -0.6510664
000010 10 f7 23 bf e4 96 94 3f e6 b2 40 bf 7b 92 09 3f
       -0.6404886 1.1608548 -0.7527298 0.53739136
000020 f8 43 dd 3f 7f bb c3 bf 37 3b 90 be 5b f8 82 bf
       1.7286367 -1.5291594 -0.28170177 -1.0232042
000030 1f d4 0f 3f 4a d4 c6 3e 05 95 5e bf 80 8b ad bd
       0.56183046 0.3883384 -0.86946136 -0.08473873
000040 4f 6b 64 bf f6 a6 40 3f 7b c5 38 3f 82 e9 44 3f
       -0.8922624 0.7525476 0.7217633 0.76918805
000050 71 30 c1 3e 8a 01 bd be d4 db 29 3e 5a 99 e4 3f
       0.3773227 -0.36915237 0.16587764 1.7859299
000060 85 0c 59 3f 0e 15 18 bf b2 0d 82 be aa 1e 94 bf
       0.8478473 -0.59407127 -0.25401074 -1.1571858
000070 6a c5 14 bf 9a 5f 3e bf 9b a5 ef 3f 1f 4a d4 3f
       -0.5811373 -0.74364626 1.8722414 1.658512
000080 1d 12 25 3f 4e 8c 1e be bc b8 31 bd aa 7e f1 be
       0.64480764 -0.1548321 -0.043389067 -0.4716695
000090 0f 32 80 bf 49 e4 b2 bf 63 5b fc 3f 96 66 35 3f
       -1.0015277 -1.3975917 1.9715389 0.7085966
0000a0 c0 c5 bb 3f c2 9d 91 3f e3 38 91 bf 53 5d 8c bf
       1.4669724 1.1376269 -1.1345485 -1.096598
0000b0 4a 5d 35 bf c8 17 9a 3e a1 80 ff 3f dc 07 4c bf
       -0.7084547 0.3009627 1.996113 -0.7969949
0000c0 85 eb 95 3f ef 47 3d bf 86 5c f1 3f fa dd b8 bf
       1.17125 -0.73937887 1.8856361 -1.4442742
0000d0 a5 ba b4 bd 10 0f b3 bf d3 06 82 3e b7 cb b1 3d
       -0.08824662 -1.3988972 0.2539583 0.08681434
0000e0 1d 0e 0b c0 cf b4 d7 3f a2 4f 28 3f c9 b8 d0 3f
       -2.1727364 1.6852053 0.6574651 1.6306392
0000f0 e2 fe 72 be 3d a5 16 bf 9d b8 d9 bf 92 18 ef bf
       -0.23730043 -0.58845884 -1.7009465 -1.8679373
000100 be 56 3e 3f 78 92 2f 3e 04 9f 7d 3e e2 f3 a3 be
       0.7435111 0.17145717 0.24767691 -0.32022005
000110 42 64 f7 3f e1 cb a3 be 21 ab 02 c0 68 72 ef 3e
       1.9327471 -0.31991485 -2.0416949 0.46766973
000120 fc cc 6a bf 7a c1 fe 3f 27 f8 92 3f 91 94 8c be
       -0.9171903 1.9902794 1.148198 -0.27457097
000130 36 df c2 3e 22 62 2d bf 11 8d 27 bf 4e 61 98 bf
       0.3806092 -0.67727864 -0.65449625 -1.1904695
000140 03 9b 7c 3f bd 78 3b bf 87 d4 3e 3f 0c b7 c5 3d
       0.9867403 -0.73231107 0.7454304 0.09654054
000150 1e 6d 50 3f 48 ed 32 3e 5d ae bd 3f 4d 86 b2 3f
       0.814165 0.17473328 1.4818836 1.3947235
000160 2d 92 e8 3f bf 23 f7 3f 18 38 7c bf 9b 47 85 3f
       1.8169609 1.9307784 -0.9852309 1.0412477
000170 11 e9 05 40 c4 0b b8 3f a7 46 de bf 2a 2b f1 3e
       2.0923502 1.437859 -1.7365311 0.47103244
000180 6f ba a7 3f 60 64 48 3f 02 77 97 3f 01 bd c1 3f
       1.310377 0.7827816 1.1833193 1.5135804
000190 49 98 8a bf ef fa c9 3f 71 bd af bf 32 e9 21 bf
       -1.0827724 1.5779704 -1.3729688 -0.6324645
0001a0 af 22 97 3f 37 09 b3 3f 31 91 ef 3f 9f 74 b0 bf
       1.180746 1.3987187 1.8716184 -1.378559
0001b0 f7 00 d4 bf b0 03 b1 bf 0e 45 a4 3d 9d fe aa be
       -1.6562794 -1.382925 0.08020984 -0.3339738
0001c0 c4 46 f2 3f 83 09 8c bf 78 23 ab bf 22 0a 37 3f
       1.8927846 -1.0940403 -1.3370199 0.71499836
0001d0 dc fa 6f bf 78 6b b0 bf 10 83 ca 3e 59 de de 3f
       -0.93742156 -1.3782797 0.39553118 1.7411605
0001e0 b3 fd 89 bf 14 03 44 be bf df bb be 69 2d 7c bf
       -1.0780548 -0.19141799 -0.36694142 -0.9850679
0001f0 63 e9 51 be 9e f0 04 40 61 71 a3 3f c6 c1 84 3e
       -0.20499186 2.077186 1.2768975 0.25929087
000200 25 80 75 bf 20 26 0a bf a4 41 c2 3e 38 77 a8 3f
       -0.9589866 -0.53964424 0.37940705 1.3161383
000210 ec 9c dd be 6c 9b 42 3f f6 65 ba 3f 3a 27 0a 40
       -0.43283784 0.76018405 1.4562366 2.1586442
000220 d2 44 71 bf 8f 4e 96 3e 9a 34 4f bf da fb f7 bd
       -0.94245636 0.2935681 -0.8093964 -0.12108584
000230 69 97 ae 3f 2c bf ee 3f 67 6f 02 be 87 af 9f 3f
       1.3639957 1.8652091 -0.12737809 1.2475442
000240 b6 6d 12 40 a7 77 41 3f 82 62 bb 3f 37 3c 00 c0
       2.2879462 0.755732 1.4639437 -2.0036752
000250 32 21 8c 3e db 22 f8 be 76 c4 85 be d0 f5 94 bf
       0.27369076 -0.48464093 -0.2612645 -1.1637516
000260 90 0a ec 3f 50 26 dd bf 21 3b 64 3f bb 47 80 bf
       1.8440723 -1.7277317 0.89152724 -1.002189
000270 93 09 52 3f d3 ae 89 3f f0 61 10 c0 3d a7 2b bf
       0.8204586 1.0756477 -2.2559776 -0.6705206
000280 46 b9 bf bf d2 2d 96 bf fc 19 a6 3f f0 83 a6 3f
       -1.4978416 -1.1732733 1.297668 1.3009014
000290 f3 56 c4 3f d8 29 94 3f f9 1c 25 3f 4b da b1 bf
       1.5339035 1.157527 0.64497334 -1.3894743
0002a0 27 80 0e 40 e9 c1 86 3f 89 0c 82 be 89 3f 89 3f
       2.2265718 1.0527927 -0.2540019 1.0722514
0002b0 45 15 83 3f b8 26 d2 bd 53 b7 37 bf be ba 4f 3f
       1.0240866 -0.10261291 -0.71764106 0.8114432
0002c0 79 a1 27 3a 86 7d ba be 1a ec 71 3f 17 0e e2 3f
       0.0006394606 -0.36423892 0.9450089 1.766055
0002d0 77 01 99 3f 2c cf 28 bd 26 f6 3e 3f ea 8b 86 3f
       1.1953572 -0.0412132 0.7459434 1.0511448
0002e0 6d e2 a0 bf 7e 17 de 3f 7a 0e a8 3e 93 01 03 3f
       -1.25691 1.7350919 0.32823545 0.5117428
0002f0 ae 5f 46 bf 97 9f 65 3f 7b 08 f2 3e dc e1 03 40
       -0.77489746 0.8969664 0.47272095 2.0606604
000300 0b af 3b bf db 2d 07 bf ba 0e 23 bf ea c2 cf bd
       -0.7331397 -0.52804345 -0.63694346 -0.10144599
000310 05 56 49 3f ed cd ba 3f b0 d0 24 bc 80 a5 a2 3f
       0.7864688 1.4594094 -0.010059521 1.2706757
000320 a2 9f 90 be 8b 3a 3e 3f a9 91 90 3f da 59 d4 bf
       -0.2824679 0.7430808 1.1294452 -1.658992
000330 f9 08 be 3f 54 3a ef 3f 2d 2f ba be af 73 7f 3e
       1.4846488 1.8689675 -0.36364117 0.24946474
000340 ff 87 9f 3f 77 e7 b6 3f 12 1a cb bd 36 1d 9a be
       1.2463378 1.4289387 -0.09917082 -0.3010041
000350 48 e4 67 3f 8e 76 dc 3f 40 54 e7 3f 82 4a 59 3f
       0.90582705 1.722368 1.8072586 0.84879315
000360 56 e0 f6 3f d9 08 40 3f db 09 99 3f ba 1e 75 bf
       1.9287212 0.750135 1.1956133 -0.9575001
000370 b3 b8 fe 3a e4 de be 3d cd 8b 4b 3f 60 3d 3b 3f
       0.0019433707 0.09319857 0.79510194 0.73140526
000380 a5 ff c0 bf 15 8e bb bf 80 c4 f7 be 4e f1 cc bf
       -1.5078017 -1.4652735 -0.48392105 -1.601114
000390 d5 aa a5 bf be 3c b7 3d d0 13 ab 3f d1 98 3e bf
       -1.2942759 0.089471325 1.3365421 -0.7445193
0003a0 7c 8d 3e 3f 86 3d 04 40 f3 db ef 3f 66 30 9b bf
       0.7443464 2.066255 1.8738998 -1.2124145
0003b0 f1 ff 2a bf c8 39 b8 be 82 db 03 40 81 49 0e bf
       -0.66796786 -0.35981584 2.0602727 -0.5558091
0003c0 9c 72 01 40 1f ee 72 bf eb d2 20 bf d9 29 3c 3e
       2.0226202 -0.94894594 -0.62821835 0.18375339
0003d0 d7 40 c0 bc 44 04 84 bf 07 4f 0c 3f 0e d5 03 40
       -0.023468418 -1.0313802 0.54808086 2.0598788
0003e0 76 de 92 3d 57 98 21 3f e7 cf 14 3f 92 84 c0 bf
       0.07171337 0.6312308 0.58129734 -1.5040457
0003f0 62 4b f7 3e 34 c9 59 bf fd c3 3d 3e 68 95 1d 3d
       0.482997 -0.85072637 0.18531795 0.038472563

l1.bias f4 [8]
000000 8d 70 11 40 53 f4 95 3f 38 34 e6 3f 0e 5c c4 3f
       2.2724946 1.1715187 1.7984686 1.5340593
000010 61 cd b6 3f 1f e9 de 3f 85 c4 aa 3f 3f b1 b7 3f
       1.4281427 1.7414893 1.3341223 1.4350966

l2.weight f4 [8, 8]
000000 0f 2d 10 40 45 f3 ad 40 19 50 fd be 5c 92 3b bf
       2.2527502 5.435946 -0.49475172 -0.732702
000010 47 5c 96 40 0b 3b 84 40 21 7f 38 40 0b 31 48 c0
       4.6987643 4.1322074 2.8827593 -3.1279933
000020 cc ba 0d 40 bb 5b a0 bf 80 43 8b 40 08 d1 3a 40
       2.2145262 -1.2527994 4.3519897 2.9190083
000030 41 d7 c0 3d fb e2 b4 bf f0 5e a7 bf c1 ca ce bf
       0.094160564 -1.4131769 -1.3075848 -1.6155626
000040 cf c4 6e 40 79 b2 0f 40 d6 a8 4d bf 99 97 3a 3f
       3.7307622 2.245268 -0.8033575 0.7288757
000050 8f 69 b8 c0 48 16 d0 be c0 a8 8c 40 46 86 77 40
       -5.7628856 -0.40642 4.3955994 3.8675704
000060 6d 09 9f 40 4e b5 6c c0 40 5c b3 bf 6a a6 16 bf
       4.9699006 -3.698566 -1.4012527 -0.5884768
000070 76 cf 76 40 0e 8a 1b 40 83 ee 41 3e 30 21 82 40
       3.8564124 2.4303012 0.18938641 4.066551
000080 bc 41 2f be eb 6f ba 3e 0e 83 19 40 41 83 f0 3f
       -0.1711492 0.36413512 2.398624 1.8790056
000090 cc 2a 39 3f 19 bd e9 bf f5 c5 37 40 e2 e5 9c bf
       0.7233093 -1.8260833 2.8714573 -1.2257655
0000a0 39 04 0e c0 c3 ae 6b bf ea 42 91 be b5 31 b7 40
       -2.2190077 -0.9206354 -0.28371364 5.7248178
0000b0 ba 60 5e bf c7 eb aa 40 98 b8 e0 bf c4 da fd 3f
       -0.86866343 5.3412814 -1.7556334 1.9832387
0000c0 62 a2 f8 bd 58 b5 f5 be cf b9 12 40 3b 3a 1c 3f
       -0.12140347 -0.47989917 2.2925909 0.6102635
0000d0 48 6e 42 bf a6 a1 0e bf 3a 49 ff bf f2 55 8c 40
       -0.75949526 -0.55715406 -1.9944222 4.3854914
0000e0 c8 4e 48 c0 3a 56 60 40 3a 58 46 40 13 cf 09 c0
       -3.1298084 3.5052629 3.099135 -2.1532638
0000f0 8f ec a8 be d1 d1 cd 3f 22 bc 7d 40 d2 58 82 40
       -0.3299298 1.6079656 3.9646077 4.0733423

l2.bias f4 [8]
000000 80 09 a7 3f 0d 29 d9 3f 1e 7c 8c 3f 37 ba ac 3f
       1.3049774 1.6965653 1.0975378 1.3494328
000010 78 e1 c9 3d 1c 40 ed 3e 0f 9e f6 3e 4d 05 ef 3e
       0.09857458 0.46337974 0.48167464 0.46683732

l3.weight f4 [361, 8]
000000 db f2 70 3e 98 41 4d c0 9d 14 b4 be 06 3b c0 bf
       0.23530142 -3.2071285 -0.35171977 -1.5018013
000010 7a 55 a2 be 88 e0 b1 3e f2 66 00 c0 e8 5b 60 bd
       -0.31705838 0.34741616 -2.0062833 -0.05477515
000020 b6 75 20 bf 35 ff 11 3f 01 a9 dd bf 9e 46 99 bf
       -0.6267961 0.5703004 -1.7317201 -1.1974676
000030 0d 90 04 3f 49 b8 eb 3b 69 c6 b4 be 0c 15 bc bf
       0.51782304 0.0071935994 -0.35307625 -1.4693923
000040 14 5b df be bf ac b8 be 8c d2 f3 3e c1 fa c0 3e
       -0.43624175 -0.36069295 0.47621572 0.3769131
000050 06 fa b9 bf 98 ea 00 bf c0 00 2d bf 82 78 0d c0
       -1.4529426 -0.5035796 -0.6757927 -2.2104802
000060 5f c1 8c 3e fd 59 d0 be cc 81 2a be 1e 74 bf be
       0.2749128 -0.40693656 -0.16651076 -0.37393278
000070 9e 45 b1 be e2 ef ae c0 da 1a fc bf c8 9f 7b 3e
       -0.34623426 -5.4667826 -1.9695694 0.2457267
000080 18 34 1b 3f 0e a3 51 c0 55 70 a2 bf 26 4e 0f 3f
       0.60626364 -3.275577 -1.2690531 0.5597862
000090 1f f1 24 c0 7f f1 ed bd bf 8b 60 c0 64 2f 66 c0
       -2.5772169 -0.11618327 -3.5085294 -3.5966425
0000a0 5a bf 64 bf 09 92 d5 be 4f 7e 77 c0 52 ba a4 be
       -0.8935448 -0.41712978 -3.8670843 -0.321734
0000b0 3b 24 9d 3d 15 92 1b 3e 59 32 84 bd c5 b7 16 bc
       0.07672926 0.15192445 -0.064549156 -0.0091990875
0000c0 cb 1e 49 3e 8f 8d 9c c0 4d 93 ff 3e df 7c 69 3d
       0.19640653 -4.89228 0.4991707 0.057003852
0000d0 a6 58 23 c0 a1 29 03 3e a0 f2 ab c0 46 28 61 bf
       -2.5522857 0.12808849 -5.3733673 -0.8795208
0000e0 13 46 ae bd 0f 0c 9a c0 1c 21 93 3e 41 0a c5 be
       -0.08509459 -4.813972 0.28736198 -0.38484386
0000f0 b0 c8 26 c0 f3 a6 06 3f 12 48 00 c0 f8 7d d3 be
       -2.605999 0.52598494 -2.0043988 -0.41307044
000100 96 38 23 3e e3 62 04 c0 2d 7c 9d 3c dd 19 b9 3e
       0.15939555 -2.0685356 0.01922425 0.36152545
000110 a0 45 6a c0 e3 16 d4 3e 14 55 96 c0 59 f1 0d c0
       -3.6604996 0.4142371 -4.6978855 -2.2178557
000120 24 a5 23 3f 88 f4 98 c0 ae 47 dd be 3f 58 b0 3e
       0.6392386 -4.77985 -0.4321875 0.34442326
000130 9d ae f9 bf 78 26 97 be 67 ef 9c c0 41 35 c2 bf
       -1.9506413 -0.29521537 -4.904224 -1.5172502
000140 23 3d 2d 3c 6b c6 99 c0 ef c4 8c 3e 35 5b 9d 3e
       0.010573658 -4.805471 0.27493998 0.30733648
000150 db 1a 6d c0 0e 76 88 3e bb 1a a4 bf c0 91 d0 bf
       -3.7047641 0.2665257 -1.2820657 -1.6294479
000160 14 9a 9c 3e 1e 49 a1 bf 99 58 72 bf 4d 7f f3 3e
       0.30586302 -1.2600439 -0.9466644 0.4755806
000170 a0 9c 7f bf 5d 06 19 bf 5d 2f cf c0 66 38 96 be
       -0.99848366 -0.59775335 -6.4745317 -0.29339904
000180 b6 7d 4c bf c4 c5 d6 be 17 80 db 3e 27 dd 8e c0
       -0.7987932 -0.41947758 0.42871162 -4.464496
000190 b5 07 1f bf 7f 53 48 be 7b d8 b1 be 75 70 88 3e
       -0.62121135 -0.19563101 -0.34735474 0.26648298
0001a0 04 19 03 3f 65 93 1e bf c1 a1 60 bf 5e b5 d5 3e
       0.51210046 -0.61943656 -0.87746817 0.41739935
0001b0 37 d9 17 bf 2d 41 0f c0 8b 10 c2 c0 38 9a 0a bf
       -0.5931582 -2.238353 -6.0645194 -0.5414157
0001c0 39 31 2d 3e e9 9c 5e bf 3c b9 1e 3e 66 cf 43 c0
       0.16913308 -0.86958176 0.15500349 -3.0595336
0001d0 d8 e2 42 3e d9 5d 8a c0 df 57 e8 bf e0 b7 da 3e
       0.19031847 -4.323956 -1.8151816 0.4271841
0001e0 40 b1 35 bf 46 90 59 be 74 d9 08 3f df bb 34 c0
       -0.7097359 -0.21246442 0.5345681 -2.8239667
0001f0 49 b9 72 3e 79 9d 98 bf 1f 17 bc 3c ba a5 87 be
       0.23703493 -1.1923057 0.022960244 -0.26493627
000200 b9 b8 6a be e7 de 8f c0 84 1e 0c 3f 28 eb 0b bf
       -0.22922029 -4.4959598 0.54734063 -0.54655695
000210 90 6f 4e bf e5 25 5c c0 c6 4f 04 bd 5a 8e 1a 3e
       -0.8063898 -3.439813 -0.03230264 0.15093365
000220 75 50 fc 3e 96 5d 25 3d 6a ce 2a bf 1d aa 70 bf
       0.49280134 0.040372454 -0.6672121 -0.9400957
000230 c1 b8 0d bf 3b 82 a7 be 26 05 0b c0 9e 4a 31 bf
       -0.5536004 -0.32716545 -2.1721892 -0.6925448
000240 05 22 0c bf 28 40 45 3e 65 2e 29 be 6d 83 73 3e
       -0.5473941 0.19262755 -0.16521604 0.23780604
000250 31 2f a5 bf 24 e0 61 3e 42 45 90 bf 9e ba c3 bf
       -1.2905027 0.22058159 -1.1271136 -1.5291326
000260 21 4d 81 bf 3b f0 8c bf 7c 57 29 3e c5 18 04 c0
       -1.0101663 -1.1010813 0.16537279 -2.0640118
000270 cb 38 78 be d9 fb a8 3e a3 5f a7 3d e9 39 80 bd
       -0.24240415 0.33004645 0.08172538 -0.062610455
000280 d9 8b 83 bf 86 f2 ec 3c 15 8d 2d bd 9b d7 56 c0
       -1.0277053 0.028924238 -0.042370874 -3.3569095
000290 a4 98 89 3e f2 1b 5f c0 bf e2 08 bd 2a 6d cf 3e
       0.26874268 -3.4860806 -0.033419367 0.40512973
0002a0 6b 22 9b 3e 07 fb 65 3e ee 1f 28 bd 64 bd f4 bf
       0.30299696 0.2245904 -0.041046076 -1.9120297
0002b0 fa 12 63 be 14 97 fb bf c8 9f 3b c0 df c3 01 3e
       -0.22175208 -1.965548 -2.9316273 0.12672375
0002c0 aa 77 56 bf 4e 48 93 3e cd cc e0 3e c3 ba 45 be
       -0.8377634 0.28766102 0.4390625 -0.19309525
0002d0 a5 9a 02 3e 5c 03 5c bf 5b 0a 8b bf 34 52 d3 bf
       0.12754305 -0.85942626 -1.0862535 -1.6509461
0002e0 09 1b 81 3e 56 f3 a0 bf 01 88 8d be 47 5f f9 3e
       0.2521594 -1.257426 -0.27642825 0.48705503
0002f0 76 c5 e4 bf 84 73 45 be be cc 03 c0 c0 34 c9 bf
       -1.787276 -0.19282347 -2.0593715 -1.5719223
000300 85 88 e3 be e5 45 55 bf d0 2a c1 bf 79 fc ed 3e
       -0.44440094 -0.83309776 -1.509119 0.46481684
000310 97 2f 87 c0 88 7a 14 3f c1 1c 19 3b e5 e0 3b c0
       -4.2245593 0.5799947 0.0023363086 -2.9356015
000320 95 a4 2f bf d8 f8 fa be 5c 2e 7c be 05 df 07 3e
       -0.6861051 -0.49017978 -0.2462706 0.13268669
000330 3d d9 b8 bf 9e 9e b0 3e 7b a2 08 bf 15 c3 17 bf
       -1.4441296 0.34496015 -0.53372926 -0.59282047
000340 6f a6 95 3e 90 84 4d c0 d4 33 6c be a7 d3 6c 3e
       0.2922854 -3.211216 -0.23066646 0.23127614
000350 a7 9e 23 bf 2b 3c b4 bf 13 ff 82 c0 a6 5f 75 3e
       -0.6391396 -1.4080862 -4.093637 0.23962268
000360 4d 03 29 bf fc ae 9d 3e 3c 17 a5 bf a3 a7 48 be
       -0.6602066 0.30797565 -1.2897716 -0.19595198
000370 35 cf 0e 3e 06 c0 2a bf da 37 d5 be 0e 4f a4 be
       0.1394623 -0.66699255 -0.41644174 -0.32091564
000380 10 10 d9 be 7c 7e 1d bf 57 de 59 bf 53 c5 dc bf
       -0.42395067 -0.61521125 -0.8510489 -1.7247719
000390 4a a5 c9 be 30 35 92 3e e5 8b 9b be 8f 22 72 3e
       -0.39383918 0.28556204 -0.3038017 0.23645996
0003a0 a3 54 60 bf aa 5c 5b bd c1 1d 19 be ec 82 8d c0
       -0.87629145 -0.05355517 -0.14952756 -4.4222317
0003b0 21 80 65 bf 75 6b f8 3e f1 cd 69 be e6 fb e5 3d
       -0.89648634 0.48519483 -0.22832467 0.112296864
0003c0 91 17 89 be c1 51 61 3e f7 1c 9b be 5a 81 8a bb
       -0.26775792 0.22003843 -0.30295536 -0.0042268457
0003d0 a3 d2 1e be 20 46 a2 bf c0 0f 38 bb 1b 92 f4 bf
       -0.15510039 -1.267765 -0.002808556 -1.9107088
0003e0 bf ef f4 3e 03 44 cb bf be a2 12 3f c7 76 c2 3e
       0.47839162 -1.588013 0.57279575 0.37981245
0003f0 e6 19 e0 bf 1f 8a 55 bf c1 40 a8 c0 6d 8c 40 c0
       -1.7507904 -0.8341388 -5.2579045 -3.008571

l3.bias f4 [361]
000000 ee c9 17 be 33 50 10 3f 27 3e 10 3e dc 09 28 3d
       -0.14823124 0.56372374 0.14086209 0.041025028
000010 2c b3 bc 3e a8 3c 03 bf 6f e4 3e be 95 25 33 be
       0.36855447 -0.5126443 -0.18641828 -0.17494805
000020 0a 7d 8e bd 7a 7a 4f 3e b4 9a e7 3c 0e 12 8f 3e
       -0.06957443 0.20261565 0.02827201 0.27943462
000030 b0 9e 03 bf e5 e1 22 be 7c 2a ef 3e 63 b4 01 be
       -0.5141401 -0.15906484 0.467121 -0.12666468
000040 53 9b 1a be 27 52 2f 3e d7 66 41 bd f0 b1 7e be
       -0.15098314 0.17121182 -0.047217216 -0.24872565
000050 b4 de aa 3b d6 d5 b9 3e 61 37 a7 be 93 8d 93 be
       0.0052145366 0.36295956 -0.32659438 -0.2881895
000060 50 33 c9 bd 06 07 86 be b1 26 be 3e 62 90 6a 3c
       -0.0982424 -0.26177233 0.37138894 0.01431665
000070 44 13 27 3e b2 60 6b be e1 95 7b 3e df d0 87 3e
       0.16315943 -0.22986105 0.24568893 0.26526543
000080 2f d8 22 be c4 7f 6e be 38 fd 9b be be e3 70 be
       -0.1590278 -0.23290926 -0.30466628 -0.23524377
000090 00 93 c8 bd ff ee 24 be fb 3a d8 bc 8d 79 44 bf
       -0.09793663 -0.16106795 -0.026395312 -0.7674797
0000a0 a1 4a b6 3e aa fa b0 be 2c f0 5c bf c5 f5 84 be
       0.35603812 -0.34566242 -0.86303973 -0.25968757
0000b0 51 49 65 3e 78 04 41 3e c1 7b c3 be 94 61 e1 3d
       0.22391249 0.18849361 -0.38180354 0.1100494
0000c0 46 e6 1d be f1 7f 65 be d9 56 b3 bd 8e 83 8a 3e
       -0.15419874 -0.22412087 -0.08756799 0.27053493
0000d0 64 33 05 3d 68 16 37 be 43 ed 40 3e f9 b3 57 3e
       0.032519713 -0.17879641 0.18840508 0.21064748
0000e0 72 20 f2 be 1d d0 9c bd 14 53 0c bd c4 b1 f8 be
       -0.4729038 -0.07656882 -0.034258917 -0.48573124
0000f0 5b 1f bd 3d a9 ba 9f be 4c 1f c5 be c0 b9 40 bd
       0.09234496 -0.31197098 -0.3850044 -0.047052145
000100 03 2c 42 3e 66 13 d8 3c 95 3e 06 bf 1c 19 c6 be
       0.18962102 0.026376437 -0.5243924 -0.38691032
000110 1a e9 2b bf 09 fc b7 3d 0b 39 ac be cc 87 1a 3b
       -0.6715256 0.08983619 -0.3363727 0.0023579476
000120 90 12 37 3e 64 60 13 bf 99 d7 b2 bd be a2 aa bc
       0.17878175 -0.57568955 -0.08732528 -0.020829555
000130 7c ba ce be d8 8f 0b be a0 68 29 3e 16 45 be be
       -0.4037665 -0.13629091 0.16543818 -0.37162083
000140 f7 cf 00 bf a0 00 73 be 2f c0 16 bf 91 58 96 be
       -0.5031733 -0.23730707 -0.58887 -0.29364446
000150 61 94 be bd 24 bf bc bd 3d b5 bc 3d a8 2a 76 3e
       -0.09305645 -0.09216145 0.09214256 0.2403971
000160 e3 17 27 3e 22 13 f5 bd 62 2f a5 be 89 df a5 3e
       0.16317706 -0.1196654 -0.32262713 0.32397106
000170 16 53 5d be 7b 87 44 3b 14 19 80 3e 93 3d b5 3e
       -0.21613726 0.002998798 0.25019133 0.3539854
000180 a1 81 44 3d 3c 49 ae be 14 0a dd 3e e8 aa e1 be
       0.047975186 -0.34040248 0.43171751 -0.44075704
000190 d9 cc 18 3d 8f 2e 1b 3e ed 2f 07 be 49 70 fa 3e
       0.037304733 0.1515448 -0.13201876 0.48913792
0001a0 44 a3 a0 3e b2 5a 4b be c2 86 cb be 9d 63 f8 3d
       0.31374562 -0.19858816 -0.3975125 0.12128375
0001b0 5a c8 d1 3d db b4 0b be 7b e9 e8 3c 24 2e cd bd
       0.10243292 -0.1364321 0.028431645 -0.10018566
0001c0 73 40 24 bf 7b 6e 64 3e 5a 07 94 3e 15 9f 1e be
       -0.6416084 0.2230777 0.2891186 -0.15490372
0001d0 a9 ee 97 be 30 61 87 3e 89 19 16 3d 99 52 ad bc
       -0.2967427 0.26441336 0.036645446 -0.02115755
0001e0 7e b9 e4 3d 9d a5 23 bf 32 a1 5d be e8 3d 6d 3e
       0.11168192 -0.6392458 -0.21643522 0.23168147
0001f0 51 21 b4 3d d0 21 8a bf f9 fb 8f 3e 44 c4 27 be
       0.08795417 -1.0791569 0.28121927 -0.16383463
000200 28 0c ac 3e 2e 05 8e be 0c 1d 7d be 8b ba aa be
       0.33603024 -0.27738327 -0.24718112 -0.33345446
000210 76 74 0f bf 3e b7 f0 be 60 bd 0b bf 19 2d 8b be
       -0.5603708 -0.47014803 -0.5458584 -0.27182844
000220 05 99 56 3d 19 e0 1a be 4e a1 53 3e 65 fc de 3e
       0.052392025 -0.15124549 0.20667002 0.43551937
000230 49 b6 99 be ec ca 65 3e c4 41 40 3e c9 cd 1c bf
       -0.30021885 0.2244069 0.18775088 -0.61251503
000240 9b c6 30 be 74 a2 71 be 7e 72 a7 be 0a 65 9a 3e
       -0.17263262 -0.23597127 -0.32704538 0.30155212
000250 12 dc b0 3d 10 56 b5 3b 78 38 24 be 8b 37 c1 bd
       0.08635725 0.005533941 -0.16037166 -0.09434422
000260 43 19 ab be 10 54 5a bd 20 b4 b0 bb ee 38 1e bd
       -0.3341771 -0.053302824 -0.0053925663 -0.03862851
000270 97 19 15 3e 2a ae 57 3e 60 df 54 be 7f 7e 69 be
       0.14560543 0.21062532 -0.20788336 -0.2280216
000280 a9 04 81 3d 26 e0 42 be 52 7a 4a be 0a 16 47 be
       0.06299717 -0.19030818 -0.19773224 -0.19442001
000290 be 8e 09 3d 12 a1 ce bd 9d 4e a0 3e 90 de 09 bf
       0.033583395 -0.100893155 0.31309977 -0.5385523
0002a0 65 d2 99 be 3b 5e 16 be 20 6f e2 be fc 96 d8 bd
       -0.3004333 -0.14684384 -0.44225407 -0.10575673
0002b0 4e 4a 9b 3e ff 7a 2e bd 47 dd 57 3e a7 95 c5 be
       0.30330127 -0.042597767 0.21080504 -0.38590738
0002c0 d2 ae a3 bd 29 59 38 3e 75 45 90 be fc e1 a9 be
       -0.07992329 0.18002762 -0.28177992 -0.33180225
0002d0 fa 0f 0e be d7 94 85 3e 4e 8a c8 bd 63 00 c3 bd
       -0.13873282 0.26090118 -0.097920045 -0.09521558
0002e0 71 8e fd 3e 3f 67 76 bd 4c ea 58 bd 4b 20 ab be
       0.49522737 -0.060157057 -0.052957818 -0.33423075
0002f0 e6 a3 61 3e c0 a5 80 3d 68 4c 21 be 8f 7f 42 3d
       0.22035179 0.06281614 -0.15751803 0.04748493
000300 80 6f 3d 3e cc a5 3c be 5f b7 06 be e9 f2 84 be
       0.18499565 -0.18422621 -0.13155888 -0.25966576
000310 13 33 f6 be 33 b6 8d 3c d1 ad ef 3d b0 ea 17 bf
       -0.48085842 0.017298793 0.11703075 -0.5934248
000320 35 c3 d0 bc 64 96 45 3d 10 df 8e bc 59 6c b2 be
       -0.025483707 0.048239127 -0.017440349 -0.34848288
000330 3f 75 3f bf 38 43 2a 3e 86 ac 8d 3e b6 d1 f6 3e
       -0.7478828 0.16627204 0.27670687 0.48206872
000340 fd b9 c2 bc 27 5d 13 be e6 9c 78 3e 59 ea c8 be
       -0.023770327 -0.14391004 0.24278602 -0.39241293
000350 a1 ca b8 be a3 af 03 bf d2 49 97 be f9 0b 1e bf
       -0.36092094 -0.51439875 -0.29548508 -0.6173702
000360 aa 43 c0 3d 74 7d 94 be 9f fc 85 be 35 93 02 3f
       0.09387906 -0.29001963 -0.26169297 0.5100587
000370 bb 86 d2 3e 6f 9a 87 bd 97 63 01 bf 8b 92 86 be
       0.41118416 -0.06621253 -0.5054259 -0.26283678
000380 c6 6b 98 bd 90 b5 2e bf f9 ba 24 bf c5 fc d3 be
       -0.07442431 -0.6824579 -0.643478 -0.41403785
000390 f9 04 eb bd 12 3a 98 be 68 0a 3b be 95 62 a5 be
       -0.11475558 -0.29731804 -0.18265688 -0.32301775
0003a0 30 77 39 3b 01 08 6d 3c a4 b6 91 be 3b fc 79 3e
       0.00282998 0.01446724 -0.28459656 0.24412625
0003b0 79 44 d7 3d 09 ba 94 3d d9 28 e1 be 94 c4 ce be
       0.10511107 0.07262046 -0.43976477 -0.40384352
0003c0 ce 96 57 be 75 0f d5 3d 75 1d 1b bf c4 80 ad 3d
       -0.21053621 0.10403339 -0.6059182 0.08471826
0003d0 19 cb 94 3e de 09 5e bc 60 9e 34 be 4d c5 7b 3d
       0.290612 -0.013552157 -0.1763854 0.061467458
0003e0 be 4f ba be 52 f9 90 be 1d 7a 7e be 90 e4 b8 be
       -0.36388963 -0.28315216 -0.2485127 -0.3611188
0003f0 a5 18 38 3e fc af 2b 3e 56 88 92 3d ad 97 6e 3e
       0.17978151 0.16766351 0.0715491 0.23300047
